model3.pth (torch, 1983 bytes, 1 tensors)

1.weight f4 [1, 208]
00000000: a7c1 a2bd 9ad7 85bd c9d7 f4bc c55d 9f3c
00000010: 8cb5 81bc eddf a0bd 4be6 0dbd 5e76 12bd
00000020: b2b8 8ebd 90ae 86bd 305b 08bd 21ff 25bd
00000030: 5b8f 913c 3549 a7bd 8e93 253d f7c7 3ebd
00000040: 8e97 9fbd a7a1 b0bd fb3e c1bc 6fc0 41bd
00000050: 7ab2 5dbd 9c8f 1abd fe98 9e3c f98f 34bc
00000060: f5e3 4bbd 1c16 81bc 06d5 203d 4775 083c
00000070: f2f3 b23c 898e 063d 49f9 7f3c 4c55 21bd
00000080: d4b9 78bd f1e7 10ba 3dc3 3e3d 3bbd 4e3b
00000090: ce2c 223d 98f6 283d 01b0 9bbd 55ff a8bd
000000a0: c144 43bd 8343 65bd b78e febc e4bd a9bd
000000b0: 58d1 0b3d a34e acbd 7974 2c3c b6b2 b73c
000000c0: 4806 0abb 8ec1 ba3b f990 7fbd 6769 97bd
000000d0: 6a6a 993d e182 8bbc a43d cebc dd95 07be
000000e0: d7ec 9c3c 385f b43d 69f1 e0bd 8a5d 053e
000000f0: bc97 e63c a944 04bd 3038 133e 4e0c cdbc
00000100: 741c ecbc ba6b 833d a8c3 1e3e 4aa5 523d
00000110: b825 bebd ae65 54bd d0fe 69bd 3097 cb3b
00000120: b0d1 f23b 0ce7 133d 49d3 583c f6c8 2bbb
00000130: 46ec e3bc 4642 ac3c a264 133e 7bef 47bd
00000140: 38ab 77bd 9a78 aabc 0c30 4dbd a030 4fbd
00000150: ba42 273d 1732 e2bd 0055 043a 1d4d 0fbd
00000160: 251d 20bd 2035 23bc 67bc 0bbd cad9 05bd
00000170: 69ca 8dbd 0028 56bd 62d9 413d e0e2 c2bb
00000180: 3eb4 693d 1ba4 a13d 073d ca3d 6e5d d6bc
00000190: c8dc ac3d 7193 9fbd defe 40bc 9b56 bdbd
000001a0: cc47 813d 2035 e33d f977 0d3e e896 9c3c
000001b0: c240 6e3d 79b6 a63d fa8b 333d a38c 4dbd
000001c0: e83b a03d 24ac 0d3e 27c2 0e3e de69 85bd
000001d0: 00ee 09bb 0080 5fb8 9254 8bbd 309d 2ebc
000001e0: 79c1 a53d 8480 d13c 406d 183b 8014 923a
000001f0: 8253 ac3d f241 403d bcc2 f83c aac0 5ebd
00000200: f8f0 243d 2a5c 38bd e9c2 c23c db10 133d
00000210: be15 86bd b242 013d 620f 6ebd c42c b23c
00000220: 4ffb dabd e864 853d 3365 ce3b dead c5bd
00000230: 1226 683d 05d5 a43d 571c 80bb 66df 043d
00000240: ccd0 9ebd 9f23 60bd 6bea c0bd 8274 7a3d
00000250: 6d12 b2bd 060b cb3d 63fd 6dbc 7ab5 ccbc
00000260: 7b86 91bc bee1 96bd 26d5 12be 4e83 5bbd
00000270: ff1a eb3c d203 d13c a2f6 9b3d 5bca 0bbc
00000280: 4d61 c03d f80c 6f3a 2372 923d be00 98bc
00000290: cc68 5dbc 8fc4 813d 1755 973d e7c2 413b
000002a0: 1ceb 27bc 2c63 0a3c 400d 863d dfbf b03d
000002b0: 0f61 39bd 4917 aa3d c9fb 1dbd e36e 413d
000002c0: c45e f93c 796e a63d 71e4 513b 73f2 a7bc
000002d0: e4c5 acbc f866 a03b cf3a c33c 5bde 0cbd
000002e0: f539 0ebd 604d e9bc 0dda a53d 963b 86bc
000002f0: 74a0 253d 1d10 02bd 87c4 9dbc 321f 02bc
00000300: 5304 ca3c 57e4 623d 3cd8 093d 586a 29bb
00000310: 6b85 cb3c bd41 853c 8e5b a13d 14c3 1ebd
00000320: 0c76 edbb 2182 e5bc 8c7b b13c 7e88 943d
00000330: ce36 5d3d cacf 863d 5f34 0fbc 208f a73c
-0.079470925 -0.06535263 -0.02988805 0.019453892 -0.015833639 -0.078552105 -0.034643453 -0.035757415
-0.069688216 -0.06576264 -0.03329009 -0.040526513 0.017768553 -0.0816826 0.040423922 -0.04657742
-0.07792579 -0.08624583 -0.023589602 -0.04730266 -0.054125287 -0.037734613 0.019360062 -0.011020654
-0.049777944 -0.015757613 0.039265655 0.008328742 0.021844838 0.032850776 0.015623399 -0.039387986
-0.060724095 -0.0005527726 0.046572912 0.0031545896 0.03959351 0.041250795 -0.076019295 -0.08251826
-0.04767299 -0.055972587 -0.031073911 -0.08288172 0.034135193 -0.08413436 0.010525816 0.022424083
-0.0021060873 0.005699343 -0.062394116 -0.07393151 0.07491 -0.017030181 -0.025175877 -0.13240762
0.019155903 0.08807224 -0.10983545 0.13023964 0.028148524 -0.032292042 0.14376903 -0.025030281
-0.028822161 0.064170316 0.15504324 0.051427163 -0.09284538 -0.05185478 -0.057127774 0.0062130913
0.0074102506 0.036109015 0.013233968 -0.0026212311 -0.027822625 0.021027695 0.14393857 -0.04881237
-0.06046602 -0.02080946 -0.05009465 -0.05058348 0.04083512 -0.1104471 0.00050480664 -0.03498565
-0.039090294 -0.009961396 -0.03411522 -0.032678403 -0.06923372 -0.05228424 0.047326453 -0.0059474558
0.057056658 0.07892629 0.09874921 -0.026167598 0.08440548 -0.07791794 -0.011779515 -0.09245034
0.06312522 0.11094117 0.13815297 0.019114926 0.058167227 0.08140273 0.043834664 -0.05018295
0.07823926 0.13835198 0.1394125 -0.06514333 -0.00210464 -5.3286552e-05 -0.0680324 -0.010657594
0.080935426 0.025573976 0.0023258477 0.0011145025 0.08414365 0.04693789 0.030366294 -0.054382958
0.04026887 -0.04500977 0.023774581 0.035904747 -0.06547116 0.031557746 -0.05812014 0.021749862
-0.106924646 0.06513387 0.006298685 -0.09652303 0.05667693 0.08048443 -0.0039096284 0.03243961
-0.077546686 -0.05472147 -0.09419712 0.061146267 -0.08694921 0.09914212 -0.014525744 -0.024988879
-0.01776432 -0.07367276 -0.14339122 -0.05359202 0.028699396 0.025514517 0.07615401 -0.008532132
0.09393559 0.0009119059 0.07150676 -0.018555041 -0.013513755 0.06336319 0.073892765 0.0029565634
-0.010248926 0.008446496 0.06545496 0.086303465 -0.045258578 0.083052225 -0.0385702 0.04722489
0.030440696 0.0812654 0.003202703 -0.020501351 -0.021090455 0.0048950873 0.023831753 -0.034391742
-0.03472324 -0.028479278 0.080982305 -0.016385835 0.040436223 -0.031753648 -0.01925875 -0.007942008
0.024660265 0.055393543 0.033653483 -0.002585074 0.024843892 0.016266698 0.07878791 -0.03876026
-0.0072467383 -0.028016152 0.021665357 0.07252596 0.054007344 0.06582601 -0.008740514 0.02045399
