model1.pth (torch, 1983 bytes, 1 tensors)

1.weight f4 [1, 208]
-0.092507936 -0.055210114 -0.07980341 -0.06938113 -0.08395814 -0.11361237 -0.13625541 -0.09174074
-0.07609249 -0.053330332 -0.07215552 -0.08609356 -0.07587448 -0.13832627 -0.020104384 -0.053838037
-0.1070049 -0.06072003 -0.0013821087 -0.097098574 -0.099642724 -0.112624586 -0.13371842 -0.074130096
-0.096279666 -0.03817313 -0.047496095 -0.09089678 -0.12399268 -0.015995484 -0.13850993 -0.12029724
-0.12175712 -0.11763156 -0.10872769 -0.08165165 -0.13708916 -0.123027384 -0.13384886 -0.14021277
-0.07991701 -0.0538384 -0.06483891 -0.06543466 -0.13923234 -0.09092443 -0.028051784 -0.071475595
-0.07337618 -0.025480662 -0.032923386 -0.058631375 -0.12166195 -0.013731026 -0.109693184 -0.054437432
-0.10656839 0.04789277 0.008913323 -0.037665572 -0.08897595 0.12963922 -0.030524539 -0.04041257
-0.012824777 -0.13535075 0.08805602 -0.07187102 -0.14113982 -0.10659179 -0.144239 -0.028980438
-0.06306995 -0.08651106 -0.040594213 -0.055243798 -0.007640443 -0.07602317 -0.0042243525 -0.065418154
-0.035490163 -0.04615826 -0.063675255 0.01987354 -0.10943894 -0.028424712 0.04209169 0.026072882
-0.020709703 -0.10922124 -0.06591697 -0.02516317 -0.008348453 0.07003899 -0.053221513 0.04747434
-0.04409508 -0.044134185 -0.04671679 -0.1530364 -0.027979374 -0.15134878 0.045393217 -0.023316499
-0.064033054 -0.072947085 -0.045650963 -0.024611574 -0.033196494 0.07719216 0.051034704 -0.086557016
-0.036301073 -0.11833104 -0.0166302 0.049441002 0.09404061 -0.039833315 -0.08506643 0.015197374
-0.0107448585 0.043704994 -0.05923273 -0.12207252 -0.08696491 0.06055861 -0.03497908 -0.0846034
-0.032106206 -0.09575201 -0.0434113 -0.048200168 -0.021227315 -0.13885304 -0.10679124 -0.105886884
0.04228143 -0.060924236 0.037510253 -0.12430068 -0.09407077 -0.021833193 -0.044833057 0.054384876
-0.029371956 -0.11224785 -0.02587932 -0.102097094 -0.114101455 -0.11379875 -0.036514606 -0.07145413
-0.03581231 -0.06293466 -0.020848028 0.009268277 0.07473424 0.0972942 0.113867305 0.07042239
0.114020064 0.08052425 0.02184223 0.038232706 0.10257564 0.10276171 0.045501612 0.029241027
0.020480294 0.005208372 0.041952375 0.0032709276 0.123932496 0.121106066 -0.0026735666 0.110285215
0.088408194 0.04830256 0.003903645 0.022711206 0.030737385 0.09436907 0.063652895 0.08772505
-0.00064538524 0.12393968 0.09879524 0.1204717 0.0922478 0.07702417 0.09716447 0.12389976
0.056444973 0.09827464 0.0061177444 0.08751097 0.0855023 0.10149664 0.017901277 0.026032433
0.12451061 0.022892928 0.04428449 0.028575856 0.020206949 0.11516295 0.104368925 0.05069415
00000000: cd74 bdbd 0024 62bd f86f a3bd b217 8ebd
00000010: 3ff2 abbd 9aad e8bd 8a86 0bbe 92e2 bbbd
00000020: 61d6 9bbd e870 5abd 46c6 93bd d251 b0bd
00000030: 1464 9bbd 67a5 0dbe f3b1 a4bc 4685 5cbd
00000040: 6325 dbbd 91b5 78bd df27 b5ba 9edb c6bd
00000050: 7c11 ccbd b8a7 e6bd 7bed 08be 85d1 97bd
00000060: 462e c5bd 6e5b 1cbd 448b 42bd 1728 babd
00000070: e0ef fdbd f608 83bc 8cd5 0dbe 665e f6bd
00000080: cc5b f9bd d1e8 f0bd a0ac debd fb38 a7bd
00000090: 1a61 0cbe c8f5 fbbd ad0f 09be f093 0fbe
000000a0: 88ab a3bd a785 5cbd 43ca 84bd 9b02 86bd
000000b0: ec92 0ebe 9636 babd dbcc e5bc cc61 92bd
000000c0: 4046 96bd d2bc d0bc acda 06bd 7427 70bd
000000d0: e729 f9bd 19f8 60bc d2a6 e0bd c9f9 5ebd
000000e0: 8740 dabd 362b 443d 3009 123c 3747 1abd
000000f0: 0639 b6bd 25c0 043e 990e fabc a787 25bd
00000100: 031f 52bc 6399 0abe b756 b43d 1d31 93bd
00000110: f586 10be cc4c dabd 63b3 13be 6268 edbc
00000120: d12a 81bd b62c b1bd 1e46 26bd 5247 62bd
00000130: ae5c fabb 09b2 9bbd 706c 8abb f4f9 85bd
00000140: 225e 11bd 7210 3dbd 2c68 82bd d6cd a23c
00000150: 8621 e0bd f1da e8bc 5668 2c3d cc96 d53c
00000160: 65a7 a9bc 63af dfbd 7aff 86bd fe22 cebc
00000170: f3c7 08bc 9a70 8f3d cdfe 59bd 7474 423d
00000180: 0b9d 34bd 0cc6 34bd 1b5a 3fbd 93b5 1cbe
00000190: 0035 e5bc 2dfb 1abe 3dee 393d 3e02 bfbc
000001a0: c323 83bd 4865 95bd 81fc 3abd 369e c9bc
000001b0: 0cf9 07bd ec16 9e3d c409 513d ce44 b1bd
000001c0: 6fb0 14bd 8b57 f2bd 0f3c 88bc a682 4a3d
000001d0: 5d98 c03d 4228 23bd 4f37 aebd 68fe 783c
000001e0: 340b 30bc 0204 333d 059e 72bd 2801 fabd
000001f0: a91a b2bd 4e0c 783d 3946 0fbd 8c44 adbd
00000200: cc81 03bd a119 c4bd 0cd0 31bd 8a6d 45bd
00000210: e8e4 adbc 7e2f 0ebe 5eb5 dabd 39db d8bd
00000220: 4b2f 2d3d b18b 79bd 5aa4 193d 5b91 febd
00000230: 2da8 c0bd 86db b2bc dea2 37bd adc2 5e3d
00000240: 759d f0bc 33e2 e5bd de00 d4bc 4818 d1bd
00000250: 06ae e9bd 520f e9bd 5790 15bd 8b56 92bd
00000260: eeaf 12bd e3e3 80bd 7cc9 aabc f9d9 173c
00000270: 440e 993d 2e42 c73d 4333 e93d 9d39 903d
00000280: 5a83 e93d e6e9 a43d 7aee b23c e699 1c3d
00000290: 2d13 d23d bb74 d23d e65f 3a3d e18a ef3c
000002a0: 4ac6 a73c feaa aa3b 41d6 2b3d 0f5d 563b
000002b0: 52d0 fd3d 7506 f83d 0137 2fbb 37dd e13d
000002c0: 5b0f b53d e8d8 453d 4cd4 7f3b da0c ba3c
000002d0: f8cc fb3c 9244 c13d 735c 823d 31a9 b33d
000002e0: 122f 29ba 16d4 fd3d 2955 ca3d deb9 f63d
000002f0: 6aec bc3d d9be 9d3d 2afe c63d 28bf fd3d
00000300: d832 673d 3744 c93d 5c77 c83b f438 b33d
00000310: d41b af3d 78dd cf3d b3a5 923c f841 d53c
00000320: 6bff fe3d f389 bb3c a763 353d ea17 ea3c
00000330: 0b89 a53c 8dda eb3d 60bf d53d aba4 4f3d
