model4.pth (torch, 1983 bytes, 1 tensors)

1.weight f4 [1, 208]
-0.028685797 -0.08418409 -0.085840955 -0.038616195 0.036700178 0.017033318 0.008121221 -0.013876763
-0.023867097 -0.028854033 -0.066665135 -0.043926693 -0.014772056 0.011953149 -0.068647265 -0.05130275
-0.021766827 0.021889059 -0.0055139386 -0.032221857 0.020291599 -0.044488803 -0.06729547 -0.050462574
-0.054171238 -0.038758725 -0.029558472 -0.08074113 0.039805967 -0.03704606 -0.044361115 -0.048788674
-0.034933794 0.018252352 0.050417103 -0.016620636 0.015247889 0.012380249 -0.007994076 0.01479372
0.04737554 -0.07452424 0.050447702 -0.049716976 0.04362851 -0.013132172 0.0050653317 -0.011275433
-0.08309368 0.03750166 -0.07471128 -0.00012421014 0.028968144 -0.0901312 0.03723018 -0.123232156
-0.09715833 -0.04415916 0.09438571 0.07016632 0.13934295 -0.13280782 -0.095255725 0.09197886
-0.09314017 0.13748701 0.037998263 -0.05838392 -0.028163524 -0.07813037 0.004390114 -0.1282151
-0.0059686974 -0.0010200292 0.14979132 -0.12115109 0.044283554 0.15348914 0.103047 -0.1344168
0.035665557 0.015570514 0.03159195 -0.0143267475 -0.0547102 -0.007939763 -0.052888453 0.070111044
-0.002756022 0.08820855 0.0070979446 0.13999449 -0.071745545 0.0646409 -0.06641491 0.042746246
-0.098282784 0.0386919 -0.002506566 0.035955675 0.041187774 0.08604288 -0.14660336 0.049687892
-0.057006657 -0.035001893 -0.026810162 0.028513027 0.039122403 -0.0136142485 0.028447732 0.0606881
0.04713705 -0.035080187 0.09429613 0.11780987 -0.053161427 0.14308438 0.016506534 0.17441677
0.08972011 0.056677066 0.046977967 0.10395105 0.033322908 0.076837964 -0.03079597 0.020061255
-0.08245656 -0.008729273 0.034412414 0.008256592 -0.08511654 -0.016746279 0.07784567 0.03239398
-0.11419572 0.047090903 -0.062211245 -0.0131253 0.067932494 -0.108287856 0.034634303 -0.06643391
-0.06554101 0.048542827 -0.110349454 0.042106204 0.10788206 -0.13692605 0.07343436 -0.051702324
-0.106072806 0.048541743 0.010059753 -0.043999836 -0.0062960614 -0.015689384 0.060608532 -0.05874898
-0.022705542 -0.030226903 0.02232977 -0.078859195 0.039858256 0.11607008 0.07462936 0.017607067
0.07731665 0.053553183 -0.04339517 0.0259643 -0.001256565 0.009135837 0.027926939 -0.024706183
0.03410553 -0.048501834 -0.0035087026 0.057300065 0.074478105 0.038843986 0.006606183 -0.015334994
-0.0038991082 0.024164766 0.026518654 0.050359063 -0.0038553555 -0.022549242 -0.04836836 -0.043473944
0.022231735 0.05332945 0.06457416 -0.03532333 -0.0821475 -0.057234492 0.04762246 0.05027539
0.03690732 0.057597145 0.0018009603 -0.08738783 0.024944134 0.037732713 0.030913115 -0.021465927
00000000: 7afe eabc b568 acbd 62cd afbd 042c 1ebd
00000010: ed52 163d 7589 8b3c df0e 053c 5d5b 63bc
00000020: ee84 c3bc 4b5f ecbc bb87 88bd 7aec 33bd
00000030: 7e06 72bc 24d7 433c f096 8cbd d522 52bd
00000040: 5850 b2bc af50 b33c 45ae b4bb 11fb 03bd
00000050: 913a a63c e439 36bd 35d2 89bd d8b1 4ebd
00000060: a9e2 5dbd 78c1 1ebd 9c24 f2bc 9b5b a5bd
00000070: 950b 233d 9cbd 17bd 00b4 35bd a2d6 47bd
00000080: bd16 0fbd f585 953c 2a82 4e3d 0028 88bc
00000090: 48d2 793c 87d6 4a3c 96f9 02bc 5c61 723c
000000a0: db0c 423d 2aa0 98bd 40a2 4e3d 07a4 4bbd
000000b0: cfb3 323d 5228 57bc 15fb a53b 98bc 38bc
000000c0: 052d aabd 579b 193d 3a02 99bd 683e 02b9
000000d0: 9a4e ed3c b596 b8bd ac7e 183d 2461 fcbd
000000e0: f2fa c6bd 3ce0 34bd 4c4d c13d 5cb3 8f3d
000000f0: ebaf 0e3e c6fe 07be 6f15 c3bd 6a5f bc3d
00000100: 46c0 bebd 65c9 0c3e 11a4 1b3d fa23 6fbd
00000110: 31b7 e6bc d102 a0bd f2da 8f3b d24a 03be
00000120: 1095 c3bb 80b2 85ba e562 193e 101e f8bd
00000130: ac62 353d 422c 1d3e 4e0a d33d 8fa4 09be
00000140: 0c16 123d 781b 7f3c 9066 013d bcba 6abc
00000150: cd17 60bd c815 02bc 90a1 58bd 6196 8f3d
00000160: 609e 34bb afa6 b43d e095 e83b b75a 0f3e
00000170: 54ef 92bd 7362 843d 8a04 88bd b016 2f3d
00000180: 7c48 c9bd 667b 1e3d 3345 24bb 4246 133d
00000190: 83b4 283d 4037 b03d 311f 16be 8885 4b3d
000001a0: d07f 69bd 255e 0fbd fca0 dbbc 2794 e93c
000001b0: d03e 203d 4c0e 5fbc 380b e93c 1694 783d
000001c0: c812 413d 3eb0 0fbd 541e c13d 4d46 f13d
000001d0: ccbf 59bd b684 123e b638 873c 4f9a 323e
000001e0: 2dbf b73d 3626 683d f86b 403d 4ae4 d43d
000001f0: 9a7d 083d 395d 9d3d d447 fcbc 8057 a43c
00000200: fcde a8bd 3a05 0fbc 08f4 0c3d a846 073c
00000210: 9551 aebd 7e2f 89bc 8d6d 9f3d 8daf 043d
00000220: 72df e9bd 64e2 403d 38d1 7ebd 800b 57bc
00000230: 3120 8b3d 06c6 ddbd b3dc 0d3d 800e 88bd
00000240: 5d3a 86bd d8d4 463d e5fe e1bd 8e77 2c3d
00000250: 45f1 dc3d 5836 0cbe c164 963d d1c5 53bd
00000260: b33c d9bd b5d3 463d aad1 243c 2c39 34bd
00000270: 314f cebb 0687 80bc a740 783d c5a2 70bd
00000280: f900 babc 699e f7bc ecec b63c ee80 a1bd
00000290: 6942 233d 26b6 ed3d 47d7 983d b23c 903c
000002a0: 3158 9e3d 955a 5b3d 22bf 31bd 15b3 d43c
000002b0: 53b3 a4ba 7aae 153c 09c7 e43c 9f64 cabc
000002c0: 3db2 0b3d dca9 46bd 43f2 65bb 79b3 6a3d
000002d0: fa87 983d df1a 1f3d ae78 d83b a03f 7bbc
000002e0: 2e88 7fbb 30f5 c53c a63d d93c 4e45 4e3d
000002f0: 22aa 7cbb 30b9 b8bc e71d 46bd bc11 32bd
00000300: 541f b63c fb6f 5a3d 753f 843d 32af 10bd
00000310: f33c a8bd b76e 6abd c50f 433d 91ed 4d3d
00000320: 212c 173d fcea 6b3d 330e ec3a 64f8 b2bd
00000330: a457 cc3c 9e8d 1a3d 803d fd3c 50d9 afbc
