model5.pth (torch, 1983 bytes, 1 tensors)

1.weight f4 [1, 208]
000000 c0 c6 c6 bc ae 44 21 bd 0d 31 6b bd 19 71 a6 3c
       -0.024264693 -0.03937214 -0.057419825 0.020317601
000010 c3 b8 04 3d 32 bb a6 bd 73 94 4a bd 73 60 ac bb
       0.032402765 -0.081411734 -0.04945798 -0.005260521
000020 10 67 30 3d f6 08 3b bd 11 79 6d 3b 61 1b 45 bd
       0.043067038 -0.045662843 0.0036235491 -0.048121814
000030 ba 38 e9 bc 30 7b aa bd 0d 72 ce bc e3 5e 5c bd
       -0.028469432 -0.083242774 -0.025200868 -0.05380143
000040 d2 79 ce bb 18 4b 8c bd 9a a5 11 bd a7 c5 1c 3d
       -0.006301143 -0.068502605 -0.03555832 0.038274433
000050 4f d0 94 bc e6 a7 18 ba f8 b6 84 bd dd e2 b8 3c
       -0.018165736 -0.00058233587 -0.06480211 0.022569114
000060 03 ef ab bd aa 3f 9f bc 9f f1 90 3c 05 59 39 3d
       -0.08395197 -0.019439537 0.017693339 0.04525091
000070 8b 6c c2 3c 89 b6 3c bc 6a 0d 0d bd 72 39 02 bd
       0.023733398 -0.011518129 -0.03443662 -0.031793065
000080 e0 e5 a6 bd 30 a8 e6 3c 58 07 21 3d 48 ac 4a 3c
       -0.08149314 0.02815637 0.039313644 0.012370177
000090 1c d0 00 bd 21 50 4d 3d 53 8b 8a bc c9 5a c3 3c
       -0.03144847 0.050125245 -0.016912138 0.023847
0000a0 38 b9 1b 3d 79 0b fd 3b 89 4a 1c bd be d3 51 bc
       0.038018435 0.007722315 -0.03815702 -0.012806831
0000b0 e7 cd 0e bc d0 f9 a0 bd 15 f3 22 bd 8d a5 3b bd
       -0.008716083 -0.07860148 -0.039782602 -0.04581218
0000c0 69 bc 0d 3d ec 0f 47 3d 63 12 80 3c a3 95 b5 bd
       0.03460351 0.04859917 0.015633767 -0.088664316
0000d0 fb ac 45 3d 9a 3f 8c bc 8c e8 2e 3d 19 5e a9 bd
       0.04826067 -0.017120171 0.042702243 -0.08269901
0000e0 be 56 8e bd ee 80 1f bd 3c 69 b9 3c 5b 6e ef 3d
       -0.069501385 -0.038941316 0.022633187 0.116909705
0000f0 e4 76 a2 b9 91 7e 3c bd 87 33 55 bd 58 a0 97 bb
       -0.00030987628 -0.04601914 -0.052051093 -0.0046272688
000100 82 20 43 bd 76 83 4e 3c 3b fa 76 bc b7 47 01 3e
       -0.047638424 0.012604585 -0.015074308 0.12625013
000110 b8 16 e4 3d dc e2 4f 3d 34 b4 ac 3d 55 f0 0d be
       0.11137146 0.05075346 0.084328085 -0.1386121
000120 30 84 88 3b b1 2c 3d 3d 08 c0 d2 3c 5d 5f 84 3d
       0.0041661486 0.0461852 0.025726333 0.064635016
000130 cb 70 00 3e 05 df 10 bd f4 b1 f3 bd 23 69 00 be
       0.12543027 -0.035368938 -0.11899176 -0.12540106
000140 5c ad 3d bd b8 08 41 3c 35 44 5a 3d 21 09 8e 3d
       -0.046307907 0.011781864 0.053287704 0.06935335
000150 32 28 41 3d 5a 22 8c 3a d8 fe ce 3c e8 71 a0 3d
       0.047157474 0.001069139 0.025268003 0.07834226
000160 78 06 9e bd c1 90 14 bd 3a 68 dd bc 66 34 0a bc
       -0.077160776 -0.03627086 -0.027027238 -0.008435344
000170 20 46 ae 3d 3a 6f 87 bc 25 ff e4 bd a8 ce 22 bd
       0.08509469 -0.01653253 -0.111814775 -0.039747864
000180 52 f0 c3 bb 77 03 92 bd 70 e9 09 3d 57 bb 97 bd
       -0.005979576 -0.07129567 0.03366989 -0.07408779
000190 a6 1e 96 3d 3c 72 25 bc 14 81 3b bd f4 51 bb 3d
       0.073300645 -0.010098036 -0.045777395 0.09146491
0001a0 4a ac 2b 3e c8 17 7d 3c fe aa 75 3d d0 33 3f 3c
       0.16764942 0.015447564 0.059977524 0.011670068
0001b0 b9 1d 35 3e 8e 60 7c 3d 99 97 58 bd 12 f6 b4 3d
       0.1768712 0.06161552 -0.05287895 0.08835997
0001c0 58 6d 48 3d fe d1 31 bd 26 63 5a 3d 84 3b 90 3d
       0.048932403 -0.043413155 0.05331721 0.07042602
0001d0 ba 6a 97 bc fe 36 86 bd 48 a7 d5 bc c2 8c 40 3d
       -0.018483508 -0.06553458 -0.026080742 0.047009237
0001e0 49 5d 96 3d b0 d8 29 3d 00 89 94 3c 1a 58 6a 3d
       0.073420115 0.041466415 0.018131733 0.057212926
0001f0 bd 53 ed 3d 5e 56 b0 bc 84 5e a5 3c eb bc b6 bd
       0.115882374 -0.021525558 0.02018667 -0.08922752
000200 3e 12 fd 3d 68 c5 63 3d ad 53 7f bd a9 50 2a 3d
       0.12356995 0.055608183 -0.06233566 0.04158083
000210 3c 4c bd bd 87 c8 d8 bd 40 1c 81 ba 02 9f 89 3d
       -0.09243056 -0.105851226 -0.0009850338 0.067197815
000220 7c ce 8f bd 87 99 b2 bc 26 a8 f3 bc 18 2c af bd
       -0.07021806 -0.021801723 -0.029743265 -0.08553332
000230 80 08 36 3a c7 46 e8 bc 91 53 24 3d c9 f0 59 bc
       0.00069440156 -0.028354062 0.040118758 -0.013302037
000240 91 88 b3 bd 64 77 c5 3c 58 f4 2e 3c e4 8d 11 3d
       -0.08766282 0.024104781 0.010678373 0.035535708
000250 34 98 c5 bd 89 8c 8f bc 16 71 79 3d c2 4f 65 3d
       -0.09648171 -0.017523067 0.060898863 0.055984266
000260 18 3b c2 bd 3f 3c 81 3d 0c 1c 7f bc e6 02 8a bd
       -0.094839275 0.06310319 -0.015570652 -0.06738834
000270 d1 64 01 3e b0 9c 77 3d de 4a 8a bc 9e b6 b1 bc
       0.12636115 0.060452163 -0.016881403 -0.021693524
000280 c6 ba d5 bc 85 f7 3d 3d f3 e8 e4 3c e1 8c a2 3c
       -0.026090037 0.04637863 0.02794311 0.019842567
000290 d1 86 a5 3d fa ca 94 bc cc bb c6 bd 91 4f ff 3c
       0.08082355 -0.018163193 -0.09703788 0.03116587
0002a0 71 07 e2 3c c2 71 f7 3b 31 05 b4 bd c7 48 ea 3c
       0.027591439 0.007551403 -0.08790053 0.028599156
0002b0 58 bb 6f bd 39 5d fa 3c 5c 62 24 bd 18 6e 53 ba
       -0.058528274 0.03056203 -0.040132865 -0.00080654165
0002c0 12 aa 86 3d 41 db 06 bd dd 5a 07 3d 2a f1 4f 3d
       0.06575407 -0.03292394 0.03304564 0.0507671
0002d0 b2 37 ae bd 70 ce 9a 3d 8a cc 07 3d e0 78 48 3d
       -0.08506717 0.07558906 0.033154048 0.0489434
0002e0 0f 7f 65 3d 8b 81 16 bd 80 f0 9e bb 59 55 06 bc
       0.056029376 -0.036744636 -0.004850447 -0.008199059
0002f0 36 f2 90 3c f4 c7 96 bc 46 51 93 3d 81 e2 93 3d
       0.01769362 -0.018405892 0.07193236 0.072209366
000300 cf 2d 8b 3d d7 49 23 bd 1c 61 b7 3c 1e c5 88 3d
       0.06795847 -0.03986534 0.022385173 0.06678222
000310 00 b1 d0 3d 39 6e 84 3d 0d 62 74 bd 77 d8 2f bd
       0.1019001 0.06466336 -0.05966382 -0.042931046
000320 cd d2 39 bd 41 ff b2 bc 08 d3 99 3d 89 d4 bd 3d
       -0.04536705 -0.02185023 0.07510954 0.092690535
000330 fa 32 0b 3d c0 8a 1e bd 54 12 77 bb 48 3b 8b 3d
       0.033984162 -0.03870654 -0.0037700133 0.067984164
