model2.pth (torch, 1983 bytes, 1 tensors)

1.weight f4 [1, 208]
00000000: 02fc 333c d5a4 be3b be46 72bc 133e a5bc
00000010: ea4d 913c cfab a1bc f886 05bd 9753 81ba
00000020: 648e e03c d475 783c 9a5d b2bd c463 09bc
00000030: 6750 d7bb 036b a9bd 1440 b1bd 89df 58bc
00000040: ce2e acbd 6b1e bf3b 13eb 89bd ad85 613c
00000050: 3cd6 24bb e5a7 b8bd dba7 10bd ee73 6a3c
00000060: efd8 a1bc 6f5b c3bd bc84 86bc fb3a 95bd
00000070: f6d2 81bd 383d c8bd d680 3abd d41b f8bb
00000080: 31bd 36bd 140b 4abd d2ab bdbd 669b ea3c
00000090: e47d 62bd c797 62bd 6bbe d0bd a5ca 7ebd
000000a0: 6844 d0bd 974c 3abd 9883 b1bc 825f ac3a
000000b0: 654f b7bc 3501 acbd cfb8 acbd 85b3 d3bd
000000c0: 2407 903c cea1 b23c 1edf cbbc 9913 e33a
000000d0: a858 8f3c 52d5 133e c3b5 b73d 3786 8dbd
000000e0: 5d87 2bbd 9009 adbd fcc1 ffbd 9f67 fa3b
000000f0: 4669 b9bd b275 2a3e 3e27 43bd 59a3 b9bd
00000100: 9352 0fbe fbe8 fc3d 5a60 8ebd 4aa5 eabd
00000110: 9e8d 7d3d 3069 c8bd be8c c2bb ac8d 7e3d
00000120: 7392 213e 2a66 83bd 523c 35bd 3793 0abd
00000130: 3293 9f3d 9e16 adbd a143 14bd 7fae cabd
00000140: c290 36bd e3c7 eabb fa2d e33c abac 0fbe
00000150: 9202 16bd 0d78 78bd 661c dcbd 58b0 1ebd
00000160: e06b 283c bec4 a4bd c84b 57bc b8d6 583c
00000170: 28de 7f3c 527b 3dbd 5c9e 0ebc 0a9b b13d
00000180: 9a1b 5e3d a789 873b 4c50 f5bd 5f68 33bd
00000190: 4cd7 cb3c 422a 41bd 815f 173e a5c6 4fbd
000001a0: 8bf4 7fbd 582f 3e3d 4890 013e e860 e3bb
000001b0: e877 413d b2c1 1f3d f01d df3d be18 4ebd
000001c0: 9da2 183e 0bb7 373e f802 5d3c ca95 863d
000001d0: 2a79 75bd f874 cf3c d22b 243e dd63 5d3c
000001e0: 800c 543b 361f 5ebd a99c adbd 20cc 213e
000001f0: 4c0c 51bd 7a87 a4bc dcf4 39bc da5c b3bd
00000200: cb56 093d e3a2 b9bc 6533 91bd e04f 5dbd
00000210: 789d 043c 329f a3bd 9a57 733d dfa7 20bd
00000220: 16f7 9bbc 7ddd 21bd df7c d8bc 45db a6bd
00000230: 7640 c03d 669b cb39 be93 2d3d 0b5e f93d
00000240: 52fe 9bbc 5fb7 12bd 5d38 ccbc 9957 a5bd
00000250: 9881 b8bd e325 8bbc bc47 15be ed13 11bd
00000260: b05c 223d 2ecd 49bd 6661 a5bd 5df5 f23d
00000270: dc2e b13d 261a b93a 2335 d13d cb19 6a3c
00000280: d488 1fbb cb57 723c a16c 4c3c aaf7 883d
00000290: fd4c 843d b3c9 2b3d 8b7e 3b3d 8665 803d
000002a0: c4c7 b9b8 7f2f bc3d 04ea b13d be6e 8a3d
000002b0: ec93 c33d 4a00 b93b 9e36 68bc 9fac 263d
000002c0: d5c0 f03c 4a6a 713d 5067 a0bc efe1 09bd
000002d0: 61cb 9fbc cdbb 41bd 8251 2a3d d99a a0bc
000002e0: f408 b63d fb1e 843d 81e8 793d 2ede 633d
000002f0: 382f 0e3b 8b0d a53d 19fe edbc 68ef 43bc
00000300: 8d9c 543d a6b7 723d a68a ce3c 4b0d e7bc
00000310: fc11 203d 7163 dd3d 06df abbc b636 22bd
00000320: 8d16 1a3c 4d1f a73d 8c6a 953c 4d1a 1c3d
00000330: c6b7 923d 91d5 7eba f323 e63d 8195 4e3d
0.010985376 0.0058179894 -0.014787374 -0.0201712 0.017737348 -0.019735245 -0.03259942 -0.0009866831
0.027411647 0.015164811 -0.08709259 -0.008385602 -0.006570864 -0.08272364 -0.086548 -0.013236889
-0.08407365 0.0058324835 -0.0673429 0.013764781 -0.0025152108 -0.09016398 -0.03531633 0.014309866
-0.019756762 -0.09538924 -0.016420715 -0.0728664 -0.06339066 -0.097773015 -0.045533024 -0.0075716767
-0.04461402 -0.04932697 -0.09261288 0.028638553 -0.05529584 -0.055320527 -0.10192569 -0.062204976
-0.101692975 -0.045483198 -0.021669194 0.0013151022 -0.022376725 -0.08398668 -0.08433687 -0.10336975
0.01758153 0.02180567 -0.024886664 0.0017324566 0.01749833 0.14436844 0.08970215 -0.06910365
-0.04187714 -0.084490895 -0.124881715 0.007641747 -0.090532824 0.1664646 -0.047644846 -0.09064359
-0.13996343 0.12349125 -0.06951971 -0.11457308 0.061902635 -0.09785688 -0.005937188 0.062146828
0.15778522 -0.064159706 -0.04424698 -0.0338318 0.07791747 -0.084515795 -0.03619731 -0.09896564
-0.044571646 -0.0071649416 0.027731884 -0.14030711 -0.036623545 -0.060661364 -0.10747604 -0.038742393
0.010279626 -0.08045338 -0.013140626 0.013234787 0.015616931 -0.046260186 -0.008704748 0.086721495
0.05422554 0.0041362825 -0.11978206 -0.043800708 0.024882935 -0.04715944 0.14782526 -0.05072655
-0.062489074 0.04643187 0.12652695 -0.0069390424 0.047233492 0.03900308 0.10894382 -0.050316565
0.14905782 0.17940919 0.013489477 0.06571539 -0.059930004 0.02532433 0.16032341 0.013512579
0.0032356083 -0.054228984 -0.08477146 0.15800524 -0.051037118 -0.020084132 -0.011349883 -0.087579444
0.033530038 -0.022660678 -0.07089881 -0.054031253 0.008094184 -0.079893485 0.059409715 -0.039222594
-0.019038718 -0.03951787 -0.02642673 -0.08147291 0.09387295 0.00038834958 0.042377226 0.121761404
-0.019042168 -0.035819408 -0.02492922 -0.080733486 -0.09009093 -0.01698584 -0.14578146 -0.035419393
0.039639175 -0.04926794 -0.08075218 0.118632056 0.08651516 0.0014122173 0.10215213 0.014288376
-0.002434303 0.014791439 0.012477071 0.06687863 0.06459997 0.041940402 0.045774978 0.06269364
-8.858697e-05 0.09188747 0.08687213 0.06759404 0.09549698 0.0056457864 -0.014173178 0.040691968
0.029388824 0.058939256 -0.019580513 -0.033662733 -0.019506158 -0.04729824 0.04158164 -0.019605087
0.088884264 0.064512216 0.06101275 0.05563181 0.0021695625 0.08059224 -0.029051827 -0.011958934
0.05190711 0.059257172 0.025212597 -0.02820458 0.03907965 0.108099826 -0.02098037 -0.039602958
0.009404791 0.08160267 0.018239282 0.03811102 0.07163958 -0.0009721155 0.112373255 0.050435547
